…
2021-07-25 15:19:37.600728: I tensorflow/core/common_runtime/gpu/gpu_device.cc:1418] Created TensorFlow device (/job:localhost/replica:0/task:0/device:GPU:0 with 22845 MB memory) -> physical GPU (device: 0, name: TITAN RTX, pci bus id: 0000:3e:00.0, compute capability: 7.5)
Model: "model"
__________________________________________________________________________________________________
Layer (type)                    Output Shape         Param #     Connected to                     
==================================================================================================
Image Input (InputLayer)        [(None, 64, 64, 3)]  0                                            
__________________________________________________________________________________________________
conv2d (Conv2D)                 (None, 64, 64, 32)   4736        Image Input[0][0]                
__________________________________________________________________________________________________
batch_normalization (BatchNorma (None, 64, 64, 32)   128         conv2d[0][0]                     
__________________________________________________________________________________________________
conv2d_1 (Conv2D)               (None, 64, 64, 16)   528         batch_normalization[0][0]        
__________________________________________________________________________________________________
batch_normalization_1 (BatchNor (None, 64, 64, 16)   64          conv2d_1[0][0]                   
__________________________________________________________________________________________________
conv2d_2 (Conv2D)               (None, 64, 64, 16)   2320        batch_normalization_1[0][0]      
__________________________________________________________________________________________________
batch_normalization_2 (BatchNor (None, 64, 64, 16)   64          conv2d_2[0][0]                   
__________________________________________________________________________________________________
conv2d_3 (Conv2D)               (None, 64, 64, 16)   272         batch_normalization_2[0][0]      
__________________________________________________________________________________________________
batch_normalization_3 (BatchNor (None, 64, 64, 16)   64          conv2d_3[0][0]                   
__________________________________________________________________________________________________
conv2d_4 (Conv2D)               (None, 64, 64, 16)   528         batch_normalization[0][0]        
__________________________________________________________________________________________________
add (Add)                       (None, 64, 64, 16)   0           batch_normalization_3[0][0]      
                                                                 conv2d_4[0][0]                   
__________________________________________________________________________________________________
batch_normalization_4 (BatchNor (None, 64, 64, 16)   64          add[0][0]                        
__________________________________________________________________________________________________
activation (Activation)         (None, 64, 64, 16)   0           batch_normalization_4[0][0]      
__________________________________________________________________________________________________
conv2d_5 (Conv2D)               (None, 64, 64, 16)   272         activation[0][0]                 
__________________________________________________________________________________________________
batch_normalization_5 (BatchNor (None, 64, 64, 16)   64          conv2d_5[0][0]                   
__________________________________________________________________________________________________
conv2d_6 (Conv2D)               (None, 64, 64, 16)   2320        batch_normalization_5[0][0]      
__________________________________________________________________________________________________
batch_normalization_6 (BatchNor (None, 64, 64, 16)   64          conv2d_6[0][0]                   
__________________________________________________________________________________________________
conv2d_7 (Conv2D)               (None, 64, 64, 16)   272         batch_normalization_6[0][0]      
__________________________________________________________________________________________________
batch_normalization_7 (BatchNor (None, 64, 64, 16)   64          conv2d_7[0][0]                   
__________________________________________________________________________________________________
conv2d_8 (Conv2D)               (None, 64, 64, 16)   272         activation[0][0]                 
__________________________________________________________________________________________________
add_1 (Add)                     (None, 64, 64, 16)   0           batch_normalization_7[0][0]      
                                                                 conv2d_8[0][0]                   
__________________________________________________________________________________________________
batch_normalization_8 (BatchNor (None, 64, 64, 16)   64          add_1[0][0]                      
__________________________________________________________________________________________________
activation_1 (Activation)       (None, 64, 64, 16)   0           batch_normalization_8[0][0]      
__________________________________________________________________________________________________
conv2d_9 (Conv2D)               (None, 64, 64, 16)   272         activation_1[0][0]               
__________________________________________________________________________________________________
batch_normalization_9 (BatchNor (None, 64, 64, 16)   64          conv2d_9[0][0]                   
__________________________________________________________________________________________________
conv2d_10 (Conv2D)              (None, 64, 64, 16)   2320        batch_normalization_9[0][0]      
__________________________________________________________________________________________________
batch_normalization_10 (BatchNo (None, 64, 64, 16)   64          conv2d_10[0][0]                  
__________________________________________________________________________________________________
conv2d_11 (Conv2D)              (None, 64, 64, 16)   272         batch_normalization_10[0][0]     
__________________________________________________________________________________________________
batch_normalization_11 (BatchNo (None, 64, 64, 16)   64          conv2d_11[0][0]                  
__________________________________________________________________________________________________
conv2d_12 (Conv2D)              (None, 64, 64, 16)   272         activation_1[0][0]               
__________________________________________________________________________________________________
add_2 (Add)                     (None, 64, 64, 16)   0           batch_normalization_11[0][0]     
                                                                 conv2d_12[0][0]                  
__________________________________________________________________________________________________
batch_normalization_12 (BatchNo (None, 64, 64, 16)   64          add_2[0][0]                      
__________________________________________________________________________________________________
activation_2 (Activation)       (None, 64, 64, 16)   0           batch_normalization_12[0][0]     
__________________________________________________________________________________________________
conv2d_13 (Conv2D)              (None, 32, 32, 32)   544         activation_2[0][0]               
__________________________________________________________________________________________________
batch_normalization_13 (BatchNo (None, 32, 32, 32)   128         conv2d_13[0][0]                  
__________________________________________________________________________________________________
conv2d_14 (Conv2D)              (None, 32, 32, 32)   9248        batch_normalization_13[0][0]     
__________________________________________________________________________________________________
batch_normalization_14 (BatchNo (None, 32, 32, 32)   128         conv2d_14[0][0]                  
__________________________________________________________________________________________________
conv2d_15 (Conv2D)              (None, 32, 32, 32)   1056        batch_normalization_14[0][0]     
__________________________________________________________________________________________________
batch_normalization_15 (BatchNo (None, 32, 32, 32)   128         conv2d_15[0][0]                  
__________________________________________________________________________________________________
conv2d_16 (Conv2D)              (None, 32, 32, 32)   544         activation_2[0][0]               
__________________________________________________________________________________________________
add_3 (Add)                     (None, 32, 32, 32)   0           batch_normalization_15[0][0]     
                                                                 conv2d_16[0][0]                  
__________________________________________________________________________________________________
batch_normalization_16 (BatchNo (None, 32, 32, 32)   128         add_3[0][0]                      
__________________________________________________________________________________________________
activation_3 (Activation)       (None, 32, 32, 32)   0           batch_normalization_16[0][0]     
__________________________________________________________________________________________________
conv2d_17 (Conv2D)              (None, 32, 32, 32)   1056        activation_3[0][0]               
__________________________________________________________________________________________________
batch_normalization_17 (BatchNo (None, 32, 32, 32)   128         conv2d_17[0][0]                  
__________________________________________________________________________________________________
conv2d_18 (Conv2D)              (None, 32, 32, 32)   9248        batch_normalization_17[0][0]     
__________________________________________________________________________________________________
batch_normalization_18 (BatchNo (None, 32, 32, 32)   128         conv2d_18[0][0]                  
__________________________________________________________________________________________________
conv2d_19 (Conv2D)              (None, 32, 32, 32)   1056        batch_normalization_18[0][0]     
__________________________________________________________________________________________________
batch_normalization_19 (BatchNo (None, 32, 32, 32)   128         conv2d_19[0][0]                  
__________________________________________________________________________________________________
conv2d_20 (Conv2D)              (None, 32, 32, 32)   1056        activation_3[0][0]               
__________________________________________________________________________________________________
add_4 (Add)                     (None, 32, 32, 32)   0           batch_normalization_19[0][0]     
                                                                 conv2d_20[0][0]                  
__________________________________________________________________________________________________
batch_normalization_20 (BatchNo (None, 32, 32, 32)   128         add_4[0][0]                      
__________________________________________________________________________________________________
activation_4 (Activation)       (None, 32, 32, 32)   0           batch_normalization_20[0][0]     
__________________________________________________________________________________________________
conv2d_21 (Conv2D)              (None, 32, 32, 32)   1056        activation_4[0][0]               
__________________________________________________________________________________________________
batch_normalization_21 (BatchNo (None, 32, 32, 32)   128         conv2d_21[0][0]                  
__________________________________________________________________________________________________
conv2d_22 (Conv2D)              (None, 32, 32, 32)   9248        batch_normalization_21[0][0]     
__________________________________________________________________________________________________
batch_normalization_22 (BatchNo (None, 32, 32, 32)   128         conv2d_22[0][0]                  
__________________________________________________________________________________________________
conv2d_23 (Conv2D)              (None, 32, 32, 32)   1056        batch_normalization_22[0][0]     
__________________________________________________________________________________________________
batch_normalization_23 (BatchNo (None, 32, 32, 32)   128         conv2d_23[0][0]                  
__________________________________________________________________________________________________
conv2d_24 (Conv2D)              (None, 32, 32, 32)   1056        activation_4[0][0]               
__________________________________________________________________________________________________
add_5 (Add)                     (None, 32, 32, 32)   0           batch_normalization_23[0][0]     
                                                                 conv2d_24[0][0]                  
__________________________________________________________________________________________________
batch_normalization_24 (BatchNo (None, 32, 32, 32)   128         add_5[0][0]                      
__________________________________________________________________________________________________
activation_5 (Activation)       (None, 32, 32, 32)   0           batch_normalization_24[0][0]     
__________________________________________________________________________________________________
conv2d_25 (Conv2D)              (None, 16, 16, 64)   2112        activation_5[0][0]               
__________________________________________________________________________________________________
batch_normalization_25 (BatchNo (None, 16, 16, 64)   256         conv2d_25[0][0]                  
__________________________________________________________________________________________________
conv2d_26 (Conv2D)              (None, 16, 16, 64)   36928       batch_normalization_25[0][0]     
__________________________________________________________________________________________________
batch_normalization_26 (BatchNo (None, 16, 16, 64)   256         conv2d_26[0][0]                  
__________________________________________________________________________________________________
conv2d_27 (Conv2D)              (None, 16, 16, 64)   4160        batch_normalization_26[0][0]     
__________________________________________________________________________________________________
batch_normalization_27 (BatchNo (None, 16, 16, 64)   256         conv2d_27[0][0]                  
__________________________________________________________________________________________________
conv2d_28 (Conv2D)              (None, 16, 16, 64)   2112        activation_5[0][0]               
__________________________________________________________________________________________________
add_6 (Add)                     (None, 16, 16, 64)   0           batch_normalization_27[0][0]     
                                                                 conv2d_28[0][0]                  
__________________________________________________________________________________________________
batch_normalization_28 (BatchNo (None, 16, 16, 64)   256         add_6[0][0]                      
__________________________________________________________________________________________________
activation_6 (Activation)       (None, 16, 16, 64)   0           batch_normalization_28[0][0]     
__________________________________________________________________________________________________
conv2d_29 (Conv2D)              (None, 16, 16, 64)   4160        activation_6[0][0]               
__________________________________________________________________________________________________
batch_normalization_29 (BatchNo (None, 16, 16, 64)   256         conv2d_29[0][0]                  
__________________________________________________________________________________________________
conv2d_30 (Conv2D)              (None, 16, 16, 64)   36928       batch_normalization_29[0][0]     
__________________________________________________________________________________________________
batch_normalization_30 (BatchNo (None, 16, 16, 64)   256         conv2d_30[0][0]                  
__________________________________________________________________________________________________
conv2d_31 (Conv2D)              (None, 16, 16, 64)   4160        batch_normalization_30[0][0]     
__________________________________________________________________________________________________
batch_normalization_31 (BatchNo (None, 16, 16, 64)   256         conv2d_31[0][0]                  
__________________________________________________________________________________________________
conv2d_32 (Conv2D)              (None, 16, 16, 64)   4160        activation_6[0][0]               
__________________________________________________________________________________________________
add_7 (Add)                     (None, 16, 16, 64)   0           batch_normalization_31[0][0]     
                                                                 conv2d_32[0][0]                  
__________________________________________________________________________________________________
batch_normalization_32 (BatchNo (None, 16, 16, 64)   256         add_7[0][0]                      
__________________________________________________________________________________________________
activation_7 (Activation)       (None, 16, 16, 64)   0           batch_normalization_32[0][0]     
__________________________________________________________________________________________________
conv2d_33 (Conv2D)              (None, 16, 16, 64)   4160        activation_7[0][0]               
__________________________________________________________________________________________________
batch_normalization_33 (BatchNo (None, 16, 16, 64)   256         conv2d_33[0][0]                  
__________________________________________________________________________________________________
conv2d_34 (Conv2D)              (None, 16, 16, 64)   36928       batch_normalization_33[0][0]     
__________________________________________________________________________________________________
batch_normalization_34 (BatchNo (None, 16, 16, 64)   256         conv2d_34[0][0]                  
__________________________________________________________________________________________________
conv2d_35 (Conv2D)              (None, 16, 16, 64)   4160        batch_normalization_34[0][0]     
__________________________________________________________________________________________________
batch_normalization_35 (BatchNo (None, 16, 16, 64)   256         conv2d_35[0][0]                  
__________________________________________________________________________________________________
conv2d_36 (Conv2D)              (None, 16, 16, 64)   4160        activation_7[0][0]               
__________________________________________________________________________________________________
add_8 (Add)                     (None, 16, 16, 64)   0           batch_normalization_35[0][0]     
                                                                 conv2d_36[0][0]                  
__________________________________________________________________________________________________
batch_normalization_36 (BatchNo (None, 16, 16, 64)   256         add_8[0][0]                      
__________________________________________________________________________________________________
activation_8 (Activation)       (None, 16, 16, 64)   0           batch_normalization_36[0][0]     
__________________________________________________________________________________________________
conv2d_37 (Conv2D)              (None, 8, 8, 128)    8320        activation_8[0][0]               
__________________________________________________________________________________________________
batch_normalization_37 (BatchNo (None, 8, 8, 128)    512         conv2d_37[0][0]                  
__________________________________________________________________________________________________
conv2d_38 (Conv2D)              (None, 8, 8, 128)    147584      batch_normalization_37[0][0]     
__________________________________________________________________________________________________
batch_normalization_38 (BatchNo (None, 8, 8, 128)    512         conv2d_38[0][0]                  
__________________________________________________________________________________________________
conv2d_39 (Conv2D)              (None, 8, 8, 128)    16512       batch_normalization_38[0][0]     
__________________________________________________________________________________________________
batch_normalization_39 (BatchNo (None, 8, 8, 128)    512         conv2d_39[0][0]                  
__________________________________________________________________________________________________
conv2d_40 (Conv2D)              (None, 8, 8, 128)    8320        activation_8[0][0]               
__________________________________________________________________________________________________
add_9 (Add)                     (None, 8, 8, 128)    0           batch_normalization_39[0][0]     
                                                                 conv2d_40[0][0]                  
__________________________________________________________________________________________________
batch_normalization_40 (BatchNo (None, 8, 8, 128)    512         add_9[0][0]                      
__________________________________________________________________________________________________
activation_9 (Activation)       (None, 8, 8, 128)    0           batch_normalization_40[0][0]     
__________________________________________________________________________________________________
conv2d_41 (Conv2D)              (None, 8, 8, 128)    16512       activation_9[0][0]               
__________________________________________________________________________________________________
batch_normalization_41 (BatchNo (None, 8, 8, 128)    512         conv2d_41[0][0]                  
__________________________________________________________________________________________________
conv2d_42 (Conv2D)              (None, 8, 8, 128)    147584      batch_normalization_41[0][0]     
__________________________________________________________________________________________________
batch_normalization_42 (BatchNo (None, 8, 8, 128)    512         conv2d_42[0][0]                  
__________________________________________________________________________________________________
conv2d_43 (Conv2D)              (None, 8, 8, 128)    16512       batch_normalization_42[0][0]     
__________________________________________________________________________________________________
batch_normalization_43 (BatchNo (None, 8, 8, 128)    512         conv2d_43[0][0]                  
__________________________________________________________________________________________________
conv2d_44 (Conv2D)              (None, 8, 8, 128)    16512       activation_9[0][0]               
__________________________________________________________________________________________________
add_10 (Add)                    (None, 8, 8, 128)    0           batch_normalization_43[0][0]     
                                                                 conv2d_44[0][0]                  
__________________________________________________________________________________________________
batch_normalization_44 (BatchNo (None, 8, 8, 128)    512         add_10[0][0]                     
__________________________________________________________________________________________________
activation_10 (Activation)      (None, 8, 8, 128)    0           batch_normalization_44[0][0]     
__________________________________________________________________________________________________
conv2d_45 (Conv2D)              (None, 8, 8, 128)    16512       activation_10[0][0]              
__________________________________________________________________________________________________
batch_normalization_45 (BatchNo (None, 8, 8, 128)    512         conv2d_45[0][0]                  
__________________________________________________________________________________________________
conv2d_46 (Conv2D)              (None, 8, 8, 128)    147584      batch_normalization_45[0][0]     
__________________________________________________________________________________________________
batch_normalization_46 (BatchNo (None, 8, 8, 128)    512         conv2d_46[0][0]                  
__________________________________________________________________________________________________
conv2d_47 (Conv2D)              (None, 8, 8, 128)    16512       batch_normalization_46[0][0]     
__________________________________________________________________________________________________
batch_normalization_47 (BatchNo (None, 8, 8, 128)    512         conv2d_47[0][0]                  
__________________________________________________________________________________________________
conv2d_48 (Conv2D)              (None, 8, 8, 128)    16512       activation_10[0][0]              
__________________________________________________________________________________________________
add_11 (Add)                    (None, 8, 8, 128)    0           batch_normalization_47[0][0]     
                                                                 conv2d_48[0][0]                  
__________________________________________________________________________________________________
batch_normalization_48 (BatchNo (None, 8, 8, 128)    512         add_11[0][0]                     
__________________________________________________________________________________________________
activation_11 (Activation)      (None, 8, 8, 128)    0           batch_normalization_48[0][0]     
__________________________________________________________________________________________________
conv2d_49 (Conv2D)              (None, 4, 4, 256)    33024       activation_11[0][0]              
__________________________________________________________________________________________________
batch_normalization_49 (BatchNo (None, 4, 4, 256)    1024        conv2d_49[0][0]                  
__________________________________________________________________________________________________
conv2d_50 (Conv2D)              (None, 4, 4, 256)    590080      batch_normalization_49[0][0]     
__________________________________________________________________________________________________
batch_normalization_50 (BatchNo (None, 4, 4, 256)    1024        conv2d_50[0][0]                  
__________________________________________________________________________________________________
conv2d_51 (Conv2D)              (None, 4, 4, 256)    65792       batch_normalization_50[0][0]     
__________________________________________________________________________________________________
batch_normalization_51 (BatchNo (None, 4, 4, 256)    1024        conv2d_51[0][0]                  
__________________________________________________________________________________________________
conv2d_52 (Conv2D)              (None, 4, 4, 256)    33024       activation_11[0][0]              
__________________________________________________________________________________________________
add_12 (Add)                    (None, 4, 4, 256)    0           batch_normalization_51[0][0]     
                                                                 conv2d_52[0][0]                  
__________________________________________________________________________________________________
batch_normalization_52 (BatchNo (None, 4, 4, 256)    1024        add_12[0][0]                     
__________________________________________________________________________________________________
activation_12 (Activation)      (None, 4, 4, 256)    0           batch_normalization_52[0][0]     
__________________________________________________________________________________________________
conv2d_53 (Conv2D)              (None, 4, 4, 256)    65792       activation_12[0][0]              
__________________________________________________________________________________________________
batch_normalization_53 (BatchNo (None, 4, 4, 256)    1024        conv2d_53[0][0]                  
__________________________________________________________________________________________________
conv2d_54 (Conv2D)              (None, 4, 4, 256)    590080      batch_normalization_53[0][0]     
__________________________________________________________________________________________________
batch_normalization_54 (BatchNo (None, 4, 4, 256)    1024        conv2d_54[0][0]                  
__________________________________________________________________________________________________
conv2d_55 (Conv2D)              (None, 4, 4, 256)    65792       batch_normalization_54[0][0]     
__________________________________________________________________________________________________
batch_normalization_55 (BatchNo (None, 4, 4, 256)    1024        conv2d_55[0][0]                  
__________________________________________________________________________________________________
conv2d_56 (Conv2D)              (None, 4, 4, 256)    65792       activation_12[0][0]              
__________________________________________________________________________________________________
add_13 (Add)                    (None, 4, 4, 256)    0           batch_normalization_55[0][0]     
                                                                 conv2d_56[0][0]                  
__________________________________________________________________________________________________
batch_normalization_56 (BatchNo (None, 4, 4, 256)    1024        add_13[0][0]                     
__________________________________________________________________________________________________
activation_13 (Activation)      (None, 4, 4, 256)    0           batch_normalization_56[0][0]     
__________________________________________________________________________________________________
conv2d_57 (Conv2D)              (None, 4, 4, 256)    65792       activation_13[0][0]              
__________________________________________________________________________________________________
batch_normalization_57 (BatchNo (None, 4, 4, 256)    1024        conv2d_57[0][0]                  
__________________________________________________________________________________________________
conv2d_58 (Conv2D)              (None, 4, 4, 256)    590080      batch_normalization_57[0][0]     
__________________________________________________________________________________________________
batch_normalization_58 (BatchNo (None, 4, 4, 256)    1024        conv2d_58[0][0]                  
__________________________________________________________________________________________________
conv2d_59 (Conv2D)              (None, 4, 4, 256)    65792       batch_normalization_58[0][0]     
__________________________________________________________________________________________________
batch_normalization_59 (BatchNo (None, 4, 4, 256)    1024        conv2d_59[0][0]                  
__________________________________________________________________________________________________
conv2d_60 (Conv2D)              (None, 4, 4, 256)    65792       activation_13[0][0]              
__________________________________________________________________________________________________
add_14 (Add)                    (None, 4, 4, 256)    0           batch_normalization_59[0][0]     
                                                                 conv2d_60[0][0]                  
__________________________________________________________________________________________________
average_pooling2d (AveragePooli (None, 1, 1, 256)    0           add_14[0][0]                     
__________________________________________________________________________________________________
flatten (Flatten)               (None, 256)          0           average_pooling2d[0][0]          
__________________________________________________________________________________________________
dense (Dense)                   (None, 1)            257         flatten[0][0]                    
==================================================================================================
Total params: 3,089,985
Trainable params: 3,078,529
Non-trainable params: 11,456
__________________________________________________________________________________________________
Found 100 known lenses.
Found 200 known lenses.
Found 100 non lenses.
Found 200 non lenses.
…
